MNIST CNN/mnist_net.pth (torch, 245887 bytes, 10 tensors)

weight f4 [6, 1, 5, 5]
00000000: b028 c03e 0a05 223e 6477 b73c 2619 48bd
00000010: 5534 e3bd 333e 0d3f 415a 89bc ee40 01be
00000020: f096 16be 6f68 8dbc 0859 4f3d b28d 1fbe
00000030: fb47 9fbc b82c 4dbd a7ff b9bb 0a60 e33d
00000040: 9e0d 5cbe b60e 8fbe 6762 30be caff 16be
00000050: 9708 5cbe 383f 49bd f787 c9bd 9603 80be
00000060: 5eeb 2fbe a915 083f 3c67 d83e 7d7c cb3e
00000070: 050c 963e bb77 bb3e 62a3 acbd 38e8 14be
00000080: 17bb 4d3c 766f c8bd eda0 bdbd ff48 39be
00000090: 77c9 0ebe 4d32 6dbe 5b38 8bbe 56d1 4ebe
000000a0: bcd7 9cbe cfd9 d4be 576c b2be a144 27be
000000b0: e215 53bc e866 aabd 829e 1a3d 943f f73d
000000c0: c8f6 c73d 87f8 693d 5d58 a3be b0de 973c
000000d0: 0e88 8d3d f5d7 ea3e 4a3f cf3e 3894 253e
000000e0: 4ae7 063f e40c 463e ccc5 603d 6632 8cbc
000000f0: 403b a63c 0a91 943e e80c 36bd 6c87 d33d
00000100: 7527 573e 21c3 dbbc 44d2 b0be 24a5 3abe
00000110: 274c 85be 113e 163e 2819 44be b0f6 97be
00000120: b087 81be e253 43be 87c3 18bd 38e6 b2bc
00000130: 2475 ba3e e7ae b13e fda0 363d ecf3 0e3e
00000140: caf8 14be 2e2e 303f ceae 243c f889 8cbe
00000150: 0338 a5be 28c9 d33e 6943 0b3f ae9a b3be
00000160: e37c 99be 2a24 32be d8b2 d23e 5521 87bb
00000170: b187 b3be 3d78 a6be 95be 263b 1217 4a3e
00000180: 2ad9 0f3e f76b c1bd 2557 efbd 79e6 c4bc
00000190: 296d 6c3e 043c 7b3d 1d6b 0abf b4f0 2bbf
000001a0: 9aeb 97be a190 173e 046f 9f3e 0fae d93a
000001b0: 7e16 2abc d69e 62bd ec5a a3bd d588 0a3f
000001c0: 0376 4d3f 2069 193f 3103 c2bd 9771 39bd
000001d0: 1b40 913d 80b3 6b3c 5544 903e 8864 ad3e
000001e0: dee4 b3be dfba 9fbe e443 68be 8650 23be
000001f0: 9b81 4a3d 0a7d 8cbe 8f8d 5abe 57f4 4fbd
00000200: 6fff 74bd 1935 c63d 7b7f 97be d08b 50be
00000210: 0758 bdbe 1d90 933e 60a0 263e 842f 8dbe
00000220: 4c6c 4ebe a9be 8ebe 9133 b63e c7c8 923e
00000230: bcd7 aebe d24e 9fbe 5c82 4c3d 1de0 e43e
00000240: f20b de3e aa89 8b3d 66ff 4f3d 0676 393e
00000250: 2166 0f3f fd74 a63e
0.37531042 0.15822235 0.022395797 -0.04885211 -0.11093966 0.55173033 -0.01676667 -0.12622425
-0.14706016 -0.017261712 0.050622016 -0.15581396 -0.019443503 -0.050091475 -0.005676228 0.11102302
-0.2148957 -0.2794091 -0.17225038 -0.14746013 -0.21487652 -0.049132556 -0.09840386 -0.25002736
-0.17179629 0.5315805 0.42266262 0.39743415 0.29306045 0.36614785 -0.084296 -0.1454171
0.012556813 -0.097868845 -0.0925921 -0.18094252 -0.1394404 -0.2316372 -0.27191433 -0.20197043
-0.30633342 -0.41572425 -0.34848282 -0.16334774 -0.012883635 -0.08320409 0.03774882 0.120726734
0.09763867 0.05712178 -0.31903353 0.018538803 0.06910716 0.45867887 0.40477973 0.16169822
0.5269667 0.19340855 0.054876134 -0.017113876 0.020291924 0.29016906 -0.044445902 0.10328564
0.21011145 -0.026826443 -0.3453542 -0.18227059 -0.26034662 0.14672114 -0.19150221 -0.29680395
-0.25298834 -0.19074968 -0.037295844 -0.021838292 0.36417496 0.34703752 0.044587124 0.13960236
-0.1454803 0.68820465 0.010051442 -0.27449012 -0.32269296 0.41364408 0.54399735 -0.3507895
-0.29978094 -0.17396608 0.41152072 -0.0041238465 -0.35064462 -0.3251361 0.0025443186 0.19735363
0.14047685 -0.09444421 -0.116865434 -0.02403568 0.23088516 0.061336532 -0.5406969 -0.6716416
-0.29671937 0.14801265 0.31139386 0.001660766 -0.010381339 -0.05532726 -0.07976326 0.5411504
0.80258197 0.59926033 -0.09473265 -0.045274343 0.07092305 0.014386058 0.28177133 0.33865762
-0.3513555 -0.3119726 -0.22682148 -0.15948686 0.049440008 -0.27439147 -0.21343063 -0.05077013
-0.059813913 0.09678096 -0.29589447 -0.20365834 -0.36981222 0.28820887 0.16272116 -0.27575314
-0.201585 -0.27879837 0.35586217 0.28668806 -0.34148967 -0.31114823 0.049929008 0.44702235
0.4336849 0.06813367 0.050780676 0.18111429 0.5601521 0.3251113

bias f4 [6]
00000000: 0354 823c 9f82 34bc b24d ac3e 9f38 3e3e
00000010: fc65 db3d 0162 0a3e
0.0159092 -0.011017471 0.33653027 0.18576287 0.10712811 0.13513948

weight f4 [16, 6, 3, 3]
00000000: 38a6 443e cd1d 4ebe 37a5 ba3d 46ff a3bd
00000010: 2dba adbe d02a 873a e7e4 b1bd 3a00 84bd
00000020: 889f 8f3c 7fcf 66be d980 21be 5921 f4bd
00000030: b2cf dbbc cb21 6cbe 2a98 b0bd 3b6d 4c3d
00000040: ad5b d8bd 9bff 7ebe 3669 9bbe e9fb 6fbe
00000050: e3ec 823e 7854 223e 5396 2c3c 04d8 fd3d
00000060: 146c c9bd daca bfbd 7a7c 543e 59e9 8f3e
00000070: ebea 983d ce3f ba3e 0d30 3a3d e29f 6bbc
00000080: 0658 ce3d 7848 39bd ad8a 8fbe 537f e2be
00000090: d6f3 e5bc fb06 bdbe 333e 843d 3088 903d
000000a0: 9b5d 573d 9a37 05bd 2c5d 213e 9b9e 5f3e
000000b0: a686 213f 54a1 473d 485d b23d 5e00 2dbd
000000c0: abbc c0bc 7137 603e 1c20 96bd 2ce4 81be
000000d0: 1805 e0bd 3312 94be b43b 35be d449 3c3e
000000e0: f756 703e b723 0a3e d20d 243d ea79 52bd
000000f0: d532 e8bd 10fc 39be da08 62bd 7bc4 aebe
00000100: 27fe 84be 5561 99bc 866c 8d3d fe31 6f3e
00000110: b3b9 a93d 4845 393d 693f 45be 79e1 13be
00000120: 3cf9 dfbd 52b7 e23e 89ea 2d3e 3e6c cb3e
00000130: eb36 6cbd f1a3 38be ecf2 d2bd d0db 59be
00000140: 385b 8cbd 5793 f3bd 7c80 a73e 46c7 353e
00000150: 9256 413e 6f90 f8bc 6fe2 7fbe e5fd acbe
00000160: 3210 b7bd a60d 223d 7e0b 213e 5beb a3be
00000170: 5563 0ebd 755b ccbc c815 663c dcb9 503e
00000180: c742 463e d0a1 2cbc c2f1 99bd 241a 593e
00000190: f767 15be b477 c8be 04e5 b9be 9b10 63bd
000001a0: dccf 143e 3032 3bbe 4133 ef3d 9748 0bbe
000001b0: 6cf1 2dbe ee82 30be f49b b13d 9575 69be
000001c0: 980f 783c 7662 263e 097e eb3d 6a90 243e
000001d0: 621a 32bb b872 e63d 6221 f1bd c841 263d
000001e0: 6176 88be 695c 91bd f5ad 0a3e bad6 66be
000001f0: 8a66 01be 1eae afbd e791 e1bd c055 58be
00000200: 579f 883e e92c 3ebe 8f5e 93bd 8637 90bd
00000210: 06d0 b2bd 92b2 b9bc f1ef b5bd b231 873d
00000220: d82f 2c3e cecb 353e ddf8 273e cf44 873e
00000230: 73ee 19bd a3bf 7d3e 3a12 013e 5fc0 8a3d
00000240: 28e8 09be c9b6 6d3c 6605 9ebd bfbf 9dbe
00000250: b687 05be 77ab 1cbe a0d9 a5be 5b96 463c
00000260: d86e 273e 8613 f8ba ba30 8bbd 2140 64bd
00000270: f214 7b3e 668b 81bd 9d8d 11bf d562 633e
00000280: 1eae dabd 317a c1be 35bc 303e 6707 863c
00000290: 02d9 dabd e0a1 5b3e 85b0 acbe 4a3e 2dbe
000002a0: 36da 58be e0f5 2abe ed06 113d 6c3f 733d
000002b0: a078 6dbd b6ee 1dbe 0aa4 8b3e 9d83 0fbd
000002c0: a58a 23bd 8074 853d dd60 0dbd e171 9e3c
000002d0: 92c2 323d 18b9 153c 8117 aabd fe54 803d
000002e0: e9a3 75be 5588 0b3d 81ac ffbe a28f 2a3e
000002f0: b0d1 3e3e b3fd 943e 34a4 aebd 47bd 3bbd
00000300: 03a8 94bc 5d98 99be 38e8 ad3e ed5e c0be
00000310: 9d91 be3e 0fba 6a3e f8d4 423d 87bd 843d
00000320: 1f11 71be a297 c03d 9500 bfbe 7c75 26be
00000330: 3656 2c3b 0d08 86be 065c 4ebe f4b8 d9be
00000340: ee7c b13c 398d ed3d 7211 b53d 5ea1 eb3d
00000350: 3a57 a0bd 9b1a 2fbe 01a0 a73d e09b 7ebd
00000360: 2aed 2a3e c26e 14be f91f c5bd bf2a 043e
00000370: 1709 0cbd 7f0a 3b3d b33b 253d a939 c9bd
00000380: 4fb4 003e 87de 5dbd 33a4 a8bd 3624 0fbe
00000390: c4cb 33bc 3f56 0cbd 6f69 593e 7d9f e83d
000003a0: b649 413c f7b9 e03c 1b2f 90bd d788 f73c
000003b0: 3ed1 a23e a429 d8bd f586 bf3e 946b a03e
000003c0: 1335 bfbe 9f92 04bd cd65 a3bc 52b6 4d3c
000003d0: 3ab9 8dbe 6996 bc3d 57b6 29be 25ff a7be
000003e0: a43e 79be b7c8 9a3c 65e7 89be 0ea9 f5bd
000003f0: f945 e5bd 7e93 123e e005 3e3c d19d 6b3e
0.19204032 -0.20128556 0.091135435 -0.08007674 -0.33931103 0.0010312442 -0.08686238 -0.06445356
0.017532125 -0.22540091 -0.15771808 -0.11920423 -0.026832435 -0.23059766 -0.08622773 0.049908858
-0.10564361 -0.24902193 -0.30353707 -0.2343594 0.25571355 0.15852535 0.010533887 0.12394717
-0.098350674 -0.09364863 0.20750609 0.28107718 0.07466682 0.36376804 0.04545598 -0.014381381
0.10075383 -0.045235127 -0.2803549 -0.44237766 -0.028070372 -0.36919388 0.06457176 0.07057226
0.052579504 -0.03252373 0.15758198 0.21837847 0.6309608 0.04873784 0.08709198 -0.04223668
-0.023527464 0.21896149 -0.07330343 -0.25369394 -0.109384716 -0.28920135 -0.17698556 0.18387538
0.23470674 0.13490187 0.040052243 -0.051385798 -0.113378204 -0.1816256 -0.055184223 -0.34134278
-0.25975153 -0.01872317 0.06905465 0.23358914 0.082873724 0.045232087 -0.1926247 -0.1444148
-0.109362096 0.44280487 0.16984 0.3973102 -0.05766956 -0.18031289 -0.1030024 -0.21275258
-0.06853336 -0.11893337 0.32715213 0.17751798 0.1888068 -0.030342309 -0.24988721 -0.33787456
-0.08938636 0.039563797 0.1572704 -0.320155 -0.0347627 -0.024945954 0.014043279 0.203834
0.19361411 -0.010536626 -0.07516815 0.21201378 -0.1459044 -0.39153826 -0.36307538 -0.055435758
0.14532417 -0.18280864 0.11679698 -0.1360191 -0.16986626 -0.17237446 0.08672324 -0.2279876
0.015140437 0.16248497 0.11498649 0.16070715 -0.002717637 0.112523496 -0.117739454 0.040590078
-0.26652816 -0.07097704 0.13542922 -0.22542849 -0.12636772 -0.08578132 -0.11014157 -0.21126461
0.26684067 -0.1857182 -0.0719577 -0.0704184 -0.087310836 -0.022668157 -0.08883656 0.066012755
0.16815126 0.17753527 0.16403528 0.26419684 -0.03758092 0.24780135 0.12604609 0.06774973
-0.13467467 0.014508911 -0.077158734 -0.30810353 -0.13040051 -0.15299784 -0.32392597 0.0121208085
0.16350877 -0.0018926717 -0.06796403 -0.05572522 0.24519709 -0.06325416 -0.5685671 0.2220567
-0.106777415 -0.37788537 0.17259295 0.016360952 -0.10685922 0.21448469 -0.33728424 -0.16918293
-0.21176991 -0.16695356 0.035406996 0.059386656 -0.057976365 -0.15423092 0.2727359 -0.035037626
-0.039927144 0.06516361 -0.034516204 0.019341411 0.043642588 0.009138368 -0.08305264 0.06266211
-0.23988308 0.034065563 -0.49936298 0.16656354 0.18634677 0.29099807 -0.08527413 -0.045834806
-0.01814652 -0.29999056 0.3396623 -0.37572423 0.3722047 0.22922538 0.047566384 0.06481462
-0.23541687 0.09403922 -0.37305132 -0.16255754 0.0026296503 -0.26178017 -0.20152292 -0.4252392
0.021666016 0.11599202 0.08841218 0.11505388 -0.07829137 -0.17099993 0.08184815 -0.062160373
0.16692033 -0.14495376 -0.09625239 0.12906931 -0.034188356 0.045664307 0.040340137 -0.09825451
0.12568782 -0.054167297 -0.082344435 -0.13978657 -0.0109738745 -0.03426194 0.21231626 0.11358545
0.011797359 0.027432425 -0.07040235 0.030216618 0.31800264 -0.10554817 0.37407652 0.31332076
-0.3734518 -0.03236639 -0.019946003 0.012555676 -0.2768038 0.09208376 -0.16573463 -0.32811847
-0.24340302 0.018894536 -0.26934353 -0.11995135 -0.11194987 0.14314076 0.01159808 0.23009421

bias f4 [16]
00000000: 6b96 013d 6b35 bbbc 32da b1bd 6788 943d
00000010: 6b61 a2bd 581d 393c 25d6 5cbd afe2 c23c
00000020: 37b6 3fbe 6d2d 9dbd 6d9d 7c3b b0c8 fe3b
00000030: a7f9 393d c6c3 133e 9ec1 28be 8d48 a93d
0.03163759 -0.02285262 -0.086841956 0.07252579 -0.07928737 0.0112985 -0.05391516 0.023789732
-0.18721853 -0.0767468 0.0038545982 0.0077753887 0.045404103 0.1443015 -0.16480109 0.08265791

weight f4 [120, 400]
00000000: e0c4 a83b f4e8 01bd 47fe ea3d d434 f8bc
00000010: c58b be3d 23c7 58bd 7e9a 12be 4477 51be
00000020: abd3 13be ef63 333d 154e a5bc c007 37bd
00000030: d594 f9bd c064 62bb c8dc 203e dd7d 99bd
00000040: 87bb e3bd 74bb bcbd 5213 283d 8e37 c23c
00000050: b522 aa3a 5a07 d13d 3981 453e 39fb a23e
00000060: 0ea4 6f3e 649b 023e 31df 0f3e 7f05 7e3c
00000070: d485 e7bb 78ff b93b 58cf cfbd d97a 3e3e
00000080: d221 10bd 8524 a1bc c7b7 60be f283 82be
00000090: b87e 973b 331f f8bd b729 92bd eb56 d7bd
000000a0: b6f6 b73d 285c 443d b071 043d 9b38 93bd
000000b0: 1db7 313d 2111 b83d 8ca4 603d 04aa 6e3d
000000c0: ff77 11be 565f dbbd 6f1c 9cbe 929a 2fbe
000000d0: a6b7 ddbc d764 9dbc 42ae a2bc 44f7 4dbd
000000e0: 64cf 28bd 9650 95bd 4ea9 fe3d b49a 2b3d
000000f0: 25e5 bcbe 68e9 14be 1ec1 68bc 9a2c 433e
00000100: 5e31 c6bc 0741 413d 7a04 ce3d b2d0 3cba
00000110: a59c 003d 5746 35be 115c 693e cfed a23c
00000120: d755 2c3d 05ce 75bd 5519 6fbd 3e4f 293e
00000130: b7c3 0b3e e9b2 74bd dfee 36be b2d1 38bd
00000140: 49a8 1abc 4b57 4fbe 6be6 a6bd 260b 9dbd
00000150: 3c10 21bc 9167 fbbd 4b59 e73c 9c22 973e
00000160: f99e 023e b516 923e 5655 8a3d faf4 703d
00000170: a221 2b3d 2e0c 81be e234 243d b40d 663c
00000180: 6831 1f3e 8329 00be a6cf a1bd 1cc6 64be
00000190: 1409 833e 5b0a 313e 1804 783d f0f0 223e
000001a0: d294 d9bc 6dba b13c f7d9 e83d 30fd 1d3e
000001b0: 2d4e 1fbe d5bf 32bc 4100 9bbb ba64 4d3c
000001c0: 2e5e 9ebe dde3 42bd e105 463d c494 babd
000001d0: 2537 f6bd ca59 cfbd b97e 5f3d 94dd dcb9
000001e0: 1f67 76bd 8cd9 4a3d f68d 0a3e 61d6 813d
000001f0: 016e 45bc 967f 4abd 2275 c73d 5e24 9c3d
00000200: 0e0c 653c 3ef5 29bd 9a71 e1ba 806d 193e
00000210: 3f6b 323d f6fd 2bbe 9adb b5bd 055b 883e
00000220: bfc8 513e 37b6 eebd fcc4 1dbe 83ec b6bb
00000230: 515a 263d 0507 0c3e ef40 89bd d3e9 94bc
00000240: 934c f23d 9d67 e4be 6ddf 0ebe 114e 37be
00000250: 9fd8 bb3c 880c e2bd 1f53 66be 987f 22be
00000260: bb45 393c d9ef 51bd eed0 efbc 5b7e 48be
00000270: 28d3 01be b660 213e c0a3 253e e67c 6dbc
00000280: 2087 27be 3e81 3abe 025c cf3d fbcd 1a3e
00000290: 1b8e 55be b038 f0bd ed30 a0bd 347c c23d
000002a0: 92eb d5bd d156 7cbe 8f78 2b3e 757b 70bd
000002b0: 64cb 2e3e f455 58bd 7d42 d9bd 2f96 a93c
000002c0: db9c 763d d83b e13d f122 3cbd 75ce 5dbe
000002d0: 8a6a edbd 29ba 083d c993 fbbc 6cca 9abd
000002e0: 4c3f 7ebe 4af6 1c3d a918 76be fce3 84bd
000002f0: 41e8 78bb c256 0bbe 336e 833d ee63 883c
00000300: 6726 8dbc 06a6 a5bc 2656 01be c0e9 643d
00000310: f7fa 203e b51f f63c 4df3 863d 3ad2 243d
00000320: 26b0 17bd ba3e 353d d949 16bd 1d24 2ebe
00000330: e574 2c3c 66f5 76be 89e1 1b3e 966b 293e
00000340: 2c84 b1bd 0043 8e3d b50f 053e a6c3 193e
00000350: ef14 c4bc d061 903d bc86 d33d d274 873c
00000360: 18a2 74bb b6b9 3d3e bb58 953d 234d a2bc
00000370: 3711 b43d 876c bfbd 684c dfbd af62 45be
00000380: a37c d9bd e631 b6bd 7c00 ca3c bc66 c3bc
00000390: 6ee1 c9bd fbe2 243c 5a36 dfbd 4b50 9c3d
000003a0: 8ac8 f53d b02f 6cbe ca17 183e 731c b03c
000003b0: 01b0 803e f35b a03e 581c 483e 78ce c03d
000003c0: b4f2 6a3d 5c7b 193d 0bba 4c3e 78e5 1f3d
000003d0: 80b8 1bbd 7d3d e4bd f7b2 14be 0a93 29be
000003e0: 3e6d 9ebe 6c49 8fbe 128b 113e f801 513e
000003f0: 0c06 be3e 48dc 8dbd 0de7 cfbd 534b 8f3d
0.0051504225 -0.031716302 0.11474281 -0.030298628 0.09304003 -0.052924287 -0.14316747 -0.20455652
-0.14436214 0.043796476 -0.020178834 -0.044685125 -0.121865906 -0.0034544915 0.15709221 -0.0749471
-0.111197524 -0.09215441 0.04103405 0.023708131 0.0012980314 0.1020648 0.19287576 0.31832293
0.23402426 0.1275459 0.14049985 0.01550424 -0.007065514 0.005676206 -0.101469696 0.1860155
-0.035188504 -0.019670734 -0.21945105 -0.2549129 0.0046232603 -0.12115326 -0.07136863 -0.10514625
0.08982603 0.04793945 0.032334983 -0.07188531 0.04338752 0.08987642 0.054844424 0.05826761
-0.14205931 -0.10711543 -0.30490443 -0.17148808 -0.02706511 -0.019213123 -0.019858483 -0.05028464
-0.041213408 -0.07290761 0.12434636 0.041895583 -0.36893573 -0.14542162 -0.014206199 0.19059983
-0.024193462 0.047181156 0.100594476 -0.0007202729 0.031399388 -0.17702614 0.22789027 0.019888787
0.04207405 -0.06001093 -0.058373768 0.16534135 0.13648878 -0.059740935 -0.1786456 -0.045121856
-0.009439536 -0.20248143 -0.081494175 -0.07668142 -0.009830531 -0.12275613 0.02824082 0.29518592
0.12755956 0.2853295 0.06754558 0.058827378 0.04178012 -0.25204605 0.040089495 0.014041353
0.1554619 -0.12515835 -0.07900934 -0.22341198 0.25592864 0.17289107 0.06055078 0.15912223
-0.02656022 0.02169534 0.113696985 0.15428615 -0.15557165 -0.010909994 -0.004730255 0.012536222
-0.30931228 -0.04758059 0.04834545 -0.09110406 -0.12022237 -0.10124548 0.05456421 -0.00042126758
-0.060156938 0.049523875 0.13530716 0.06339718 -0.012050153 -0.04943808 0.09739138 0.07624124
0.013979925 -0.041493647 -0.0017199994 0.14983177 0.04355931 -0.16796097 -0.08879776 0.26631942
0.20486735 -0.116558485 -0.15407175 -0.0055823936 0.040613476 0.13674553 -0.06701838 -0.018177902
0.118310116 -0.446103 -0.13952418 -0.17900874 0.022930441 -0.110375464 -0.22492646 -0.15868986
0.011308129 -0.051254127 -0.02927443 -0.19579451 -0.12678206 0.15759549 0.16175747 -0.01449511
-0.1636014 -0.18213364 0.10124971 0.15117638 -0.2085499 -0.11729562 -0.07821832 0.09496346
-0.10445322 -0.24642493 0.16745208 -0.058711488 0.17069775 -0.052816346 -0.10608385 0.020701496
0.060208183 0.109977424 -0.04593176 -0.21660788 -0.11592586 0.03338066 -0.030710118 -0.0755814
-0.24828833 0.038320817 -0.24032845 -0.06488797 -0.003798023 -0.13607314 0.06417503 0.016649213
-0.017230226 -0.020220768 -0.1263052 0.055886984 0.15720735 0.030044416 0.06589375 0.04023955
-0.037033223 0.044249274 -0.03669152 -0.17005964 0.010525917 -0.2411705 0.15222754 0.16544947
-0.08667788 0.06946373 0.12994273 0.1501604 -0.023935763 0.07049906 0.10328433 0.016535196
-0.003732806 0.18527874 0.072923146 -0.019812172 0.08792346 -0.09346872 -0.10903245 -0.19275926
-0.10619476 -0.08896236 0.024658434 -0.023852699 -0.098574504 0.010063882 -0.108990386 0.07632502
0.120011404 -0.23065066 0.14852825 0.02149794 0.2513428 0.31320152 0.19542062 0.09414381
0.057360366 0.03747116 0.19992845 0.039037198 -0.03801775 -0.111445405 -0.14521395 -0.16559997
-0.3094272 -0.27985704 0.14213207 0.20410907 0.37113988 -0.06926781 -0.10151491 0.06996789

bias f4 [120]
00000000: 9fa3 a23d d356 1f3d 4b53 513c 23d9 263c
00000010: fc49 b23c 999c 003d a04b eb3c 8a5c 913c
00000020: a6f7 3dbd b6e6 b8bd fff4 ab3d 31be 943d
00000030: a9e8 5d3d 6c35 cebc c04a 5b3d f550 42bd
00000040: 8389 a93d d945 2f3c 02e9 913d dcff 853b
00000050: cc8b 70bd ccd1 b4bc 05b0 b3bd d37e 0abd
00000060: 498d 9d3c ca7e 16bd 94d7 943a a3f7 393e
00000070: b9eb 643d 8b7e be3d 707b e23d e26c a3bc
00000080: e3dd 4cbd 7fed 043d 29a6 2f3d 3907 c53d
00000090: 8d0c 1a3b 204a 71bd 8656 5abd 9aa5 ebbb
000000a0: 8b99 db3d 6871 1dbd 05f8 d03c 239e 733c
000000b0: 32d3 0cbd 6fc4 8c3d a9d0 3ebc 0a37 cd3c
000000c0: 0ed2 9a3c 1940 4c3d daa3 77bc 833d 7b3d
000000d0: 447d 03be 095e 373d a68c b3bc d5e8 303d
000000e0: 1e4f cfbd ddeb 803c b81e 933d 65d8 f53b
000000f0: 7943 00bc c3a4 ddbc 0acf 0b3d 8a91 b8bd
00000100: c1a4 b1bc e585 e6bc d5e4 603d 07db dd3d
00000110: 5636 7d3d 4796 a6bd fb8e 10be e774 6e3b
00000120: 8333 b23c 3aff 053d ea97 d93c 7931 a4bc
00000130: 4d42 1e3e 0c24 e73b 3fa9 903d 601a a53d
00000140: 8b94 a6bd a504 013b 4e7f 003d 03d2 c83d
00000150: 59c5 8b3d 0954 11bd e8a7 c53c 1432 c6bd
00000160: f676 fbbb 67b5 73bd 74f2 d2bc bf7b 9c39
00000170: ab9f 193e 6b66 bd3c a384 a4bd c545 243c
00000180: c94a 003b 5e63 d4bd 40ed a6bd 6efb 40bd
00000190: 586b 833d 4c4e 0b3e ba71 ccbb 712c aa3d
000001a0: 9927 30bc abba 22bd c8a5 4dbd 9e64 313e
000001b0: 08dc b8bb 96d7 9b3d 439b bd3c 7107 673d
000001c0: 8292 5abc 32ef b0bc de28 38bd fa17 9c3b
000001d0: 397f 41bd 7d6e 0ebe 5803 c3bd bcc6 0d3d
0.079413645 0.03890116 0.012776206 0.010183605 0.021763794 0.031399343 0.028722584 0.017744321
-0.046378754 -0.090283796 0.08396339 0.07262839 0.05417696 -0.025171958 0.053538084 -0.047440488
0.082781814 0.010697805 0.07124521 0.0040893387 -0.05872707 -0.022072695 -0.087738074 -0.033812355
0.01923241 -0.03674201 0.0011355751 0.18160872 0.055888865 0.0930148 0.110587 -0.01994938
-0.050016295 0.032453056 0.042883072 0.09620518 0.0023506016 -0.05890858 -0.05330517 -0.007191372
0.10722645 -0.03843823 0.02550889 0.014869246 -0.0343811 0.06873404 -0.011646428 0.025050659
0.01889899 0.049865816 -0.015114749 0.06133796 -0.12840754 0.044767413 -0.021917652 0.043190796
-0.10122512 0.015737468 0.071835935 0.007502603 -0.007828587 -0.027056104 0.034132995 -0.090121344
-0.021685006 -0.028140018 0.05490573 0.10832792 0.061819397 -0.08134132 -0.14117043 0.0036385597
0.021753078 0.032714106 0.026561696 -0.020043122 0.15454979 0.0070538577 0.07063531 0.08061671
-0.08133801 0.0019686606 0.031371407 0.098056816 0.068247505 -0.035480533 0.024127916 -0.096775204
-0.0076740934 -0.05949917 -0.025750376 0.00029846837 0.15002315 0.023120126 -0.08033111 0.0100264
0.0019575825 -0.10370515 -0.081507206 -0.047114782 0.064169586 0.13604087 -0.006239143 0.08309258
-0.010751628 -0.0397288 -0.05020693 0.17323539 -0.005641464 0.07609479 0.023145324 0.05640358
-0.013340594 -0.021598432 -0.04496085 0.0047636004 -0.04724047 -0.13909335 -0.09522122 0.034613356

weight f4 [84, 120]
00000000: 7983 b5bd 0458 a4bd 240f 0b3d da93 3a3e
00000010: 15da fa3d f173 3f3e c0fd d23d be2a 30be
00000020: 73ba 74bd 9f04 963d 5908 13bc eff9 e4bc
00000030: 6fc1 aebe 7e81 293e 07d2 afbc c91e 6fbd
00000040: 54b2 5b3d 55fe 88bd cb78 293e 206a ba3c
00000050: 7af0 7e3c 5173 963d 7342 0dbd 34a0 53bc
00000060: 5bb7 313d d1d7 833d f142 aabd b289 7d3e
00000070: ba92 4fbe 9099 dd3d fec4 ebbd 3e0a 923d
00000080: 1e63 2f3d 0a7e 463d 4f15 3dbe 46b6 433e
00000090: 70f6 d839 383a 18be ca3c e83d 8ebd 283d
000000a0: 46ee 3e3e 745f e63c ed50 2a3d 76b0 fbbd
000000b0: 681d 923c 2503 803c da8e 993d b470 e73d
000000c0: 03df 85bd 1e55 b93d 6ef0 a23c 599f 033e
000000d0: ee99 f4be fd38 2a3e 3038 053e 0ee8 473e
000000e0: 615a 88be 9047 d2be 812f 423e 3039 163d
000000f0: cdbb 81bd bf47 81be 0008 78be 736d b63c
00000100: fa60 3d3e af73 45bd f387 4f3d ff30 373e
00000110: 104c b8be 295b cebd 30c7 60be 7eb3 6bbe
00000120: e518 6ebd 5efd 94bd 5260 b4bd d2d9 a33c
00000130: 1040 0a3e 0774 083d a072 38be 4459 60be
00000140: 175f cbbe acc6 86bd 9922 433d dd12 b8bd
00000150: 663b b43c bad1 babe 7960 353e 8f84 2d3d
00000160: 86c1 fa3d 211f 99bd 42ad 9bbc 305e e9bc
00000170: f8af 733e c349 8c3e ba0d 6bbd 0ad1 2e3c
00000180: 67e2 18bc 61b0 66be 32bf 0b3e 8545 923d
00000190: 28ad 33be bc08 a23c fb75 05be d664 89bc
000001a0: 99a9 eabb 942d 353d 0ed7 593d 853c fe3c
000001b0: ce9c fabd 3c07 ae3d a323 143b bb6a 01bd
000001c0: c1b5 31bc 08c9 56bb d790 46bb acd0 f3bd
000001d0: 7356 043c 5186 28be 28e7 c73d 964d b2bd
000001e0: 7425 f23d 5f1e 1e3d ae82 abbb 89c1 883d
000001f0: 69f4 b03c 98df 403c bc5f bd3d 71f9 2ebe
00000200: 9f24 81bd 53e0 283e 335a b33c 2479 d13d
00000210: e1b5 a4bd f4a8 a5bd 6aa3 10be 801e 12bb
00000220: fc99 003d e904 cfbd 7688 77bc 1861 2f3d
00000230: 59bd a4bd 6bce 39bd 8422 ad3d 65e5 9fbd
00000240: 48a2 a0bc fc5f 88bd 9002 863d 55c4 303c
00000250: a42e 8f3d ef39 4f3d 6f25 293e 7b58 6d3d
00000260: aa20 00bd 06c8 60bd cd3d 893c 2070 1c3d
00000270: 70f4 e2bd 5b6c 04bb a027 36be 0259 213c
00000280: 5b9c 98bc 5791 e93d dc51 8ebd 31e6 a93c
00000290: cc66 f83c 0b52 23bd e0d3 b5bc dec0 fcbd
000002a0: 4878 4e3d 9ebf 433d ff7f 4cbd 8d8a ff3d
000002b0: a380 09bd b0d5 5f3e cccd ea3c 9e1c 16be
000002c0: 2608 2abe cf01 29bb 0866 173e 860e 80bd
000002d0: 2cae 85bc a875 c4bd 3b11 573d 1ae5 13be
000002e0: 4b45 52bd 4658 1e3d add5 3c3d ac51 443d
000002f0: 16e9 2b3e 0e7f ec3c c71c 9ebe 92e7 af3d
00000300: b499 88bb 34a4 b93d c284 023e c039 093c
00000310: 0696 713c e335 333d 9a77 593d 7eb0 8e3d
00000320: e303 ec3d a7ec c83d a7cf 1f3e edb4 563d
00000330: a928 093e 8699 22bd ef15 17bd 86d8 bdbd
00000340: 7fb5 383d cfb9 893d 241d 303c a6d8 8d3c
00000350: aed4 01be 2665 e33d dba4 9fbd d008 6e3d
00000360: 44de ac3c 5838 94be 3ad1 183e 3f89 26bc
00000370: 8dbb 1ebb 00ae 063e c106 573e 581a 5ebe
00000380: fa4a b73d 9f58 73bd ae68 aabd 95d1 0a3e
00000390: 3719 b8bc 7e64 a0bd e3fb 99bb 18a6 2ebd
000003a0: d655 883d 1ac6 fabc 5eea 093e 8260 7e3d
000003b0: 27f9 a83d 7a82 61be ab1b 683d 8ff0 9abd
000003c0: 083d 1e3e 1588 71bb 2e60 63be 2eac 1c3e
000003d0: ca34 02be 2e49 7cbe 007b 88be 1171 00bd
000003e0: 4b74 62bc 8799 aebd 8e70 5c3d 2f9e c5be
000003f0: 3579 a93e 4d82 383e fe3e 003e 457c 7fbd
-0.08862967 -0.080246 0.033949986 0.18220463 0.12248627 0.18696572 0.10302305 -0.17203805
-0.059748124 0.073251 -0.008974158 -0.027951209 -0.34131953 0.16553304 -0.021462454 -0.05837897
0.053636864 -0.06689135 0.16549985 0.022755682 0.015560264 0.073462136 -0.0344872 -0.012916613
0.043387752 0.06437648 -0.08313549 0.24759558 -0.20270815 0.10820305 -0.11512183 0.0713086
0.042819135 0.048460044 -0.1846516 0.191125 0.0004138234 -0.14865959 0.113397196 0.0411964
0.18645582 0.028121687 0.041581083 -0.12289517 0.017836288 0.0156265 0.0749795 0.11300793
-0.06536677 0.09049438 0.019890036 0.12853755 -0.4777369 0.16623302 0.13009715 0.19522116
-0.26631454 -0.41070223 0.18963434 0.036675632 -0.06334648 -0.2525005 -0.24221802 0.022268986
0.18494025 -0.048206028 0.05066676 0.17889784 -0.3599553 -0.10075981 -0.21950984 -0.2301769
-0.05812921 -0.072748885 -0.08807434 0.020001326 0.13501 0.033313777 -0.18012476 -0.21909052
-0.39720985 -0.065808624 0.047640417 -0.08987973 0.02200098 -0.36488134 0.17712583 0.042362746
0.12243943 -0.074766405 -0.019003514 -0.028487295 0.23797596 0.27400026 -0.057386138 0.010669956
-0.009331322 -0.2252822 0.13647154 0.07142166 -0.17546523 0.019779555 -0.13033287 -0.016771715
-0.007161331 0.04423292 0.053183608 0.031034717 -0.12236939 0.084974736 0.002260425 -0.031595927
-0.010846556 -0.0032773633 -0.0030298734 -0.119050354 0.008077252 -0.16457488 0.097608864 -0.087062046
0.1182355 0.038603183 -0.005234084 0.06677539 0.021600919 0.011772059 0.092467755 -0.17087342
-0.06305813 0.16491823 0.021893596 0.10228184 -0.08042503 -0.08088866 -0.14124838 -0.0022296011
0.03139685 -0.101083584 -0.015108218 0.042817205 -0.08043928 -0.04536287 0.08453849 -0.078074254
-0.019608632 -0.066589326 0.065434575 0.010788997 0.06991318 0.05059236 0.16518186 0.05794571
-0.03128115 -0.054878257 0.016753102 0.03819287 -0.11081779 -0.0020206186 -0.17788553 0.009847881
-0.018629244 0.114046745 -0.06949207 0.020739647 0.030322455 -0.039873164 -0.022195756 -0.12341474
0.050407678 0.047790162 -0.049926754 0.12477598 -0.033569943 0.21858859 0.028662585 -0.14659354
-0.16604671 -0.0025788432 0.14785016 -0.0625277 -0.016318403 -0.09592754 0.052506667 -0.14442864
-0.051335614 0.038658403 0.046102215 0.04792945 0.16788134 0.028869178 -0.3088133 0.085890904
-0.0041687135 0.090645224 0.12745956 0.008375585 0.014745241 0.043752562 0.053092577 0.06967257
0.11524179 0.09810763 0.15606557 0.052418638 0.13394417 -0.039697193 -0.036886152 -0.09269814
0.045094963 0.06724893 0.010749135 0.01731522 -0.12678787 0.11103277 -0.077951156 0.058113873
0.021102078 -0.28949237 0.14923564 -0.010164558 -0.0024220676 0.13152313 0.2099867 -0.21689737
0.089498475 -0.059410688 -0.08320747 0.13556512 -0.02247296 -0.07831667 -0.0046992167 -0.042638868
0.06656997 -0.03061204 0.1346831 0.062103756 0.08250647 -0.22022429 0.05666701 -0.07565414
0.15452969 -0.0036854793 -0.22204658 0.15300056 -0.1271545 -0.24637291 -0.26656342 -0.03135783
-0.013821672 -0.08525377 0.053818278 -0.38597247 0.33100286 0.18018456 0.1252403 -0.062374372

bias f4 [84]
00000000: 2dfd 993d 125f 223d c0c4 bd3b 2524 073e
00000010: c7d4 043d a595 06be 3147 533a 2e5e 193e
00000020: efb5 5b3e 9c7e b53d ec2e c93a 5d61 983d
00000030: 34c6 dfbd 93fc a2bd ed1f 12be 1ca6 33bc
00000040: c98d 87bb 00b3 023d 63a2 3c3a 5d6f a8bc
00000050: 05a7 b4bd 5ebf 563d 9732 3d3c 5c09 85bc
00000060: 63c0 ddbc 3446 a1bd 06e8 8cbd b4ba b0bd
00000070: 011d aa3b f6b2 1f3d 1232 3c3c 36ec efbd
00000080: 900f f23c d6e2 c03c fd62 433c de37 a73b
00000090: 38d5 4c3c 4196 b8bc 3a31 36bd 468c 803d
000000a0: 65af 313c 6a70 b8bc 3603 013d 229e 9b3d
000000b0: 34a2 573b 5e63 9c3c a1ad 613c 7628 823d
000000c0: a376 a53c c357 4ebb 005c 1d3c d1d4 da3b
000000d0: 2538 8d3d 3115 be3c b7d7 52bd 8982 343d
000000e0: 2590 0d3c 167f 893c fb80 713c bbf0 9fbc
000000f0: 3c00 8ebd 7d82 62bd e714 90bc 756e fabc
00000100: 7f0c ddbd 34b3 8cbd ad92 3ebd 1ba6 383d
00000110: 926e 83bd b69c 083d 2599 eabd 848c 71bd
00000120: 2b9c a2bd 5ecc bebd 5004 7abc 7d0a dabc
00000130: 0b4a 6a3c d3b2 3e3d 68ad 583d 1233 c3bc
00000140: 977c 843d 96d6 243a 1042 c5bd e71c 21bd
0.075189926 0.039641447 0.0057912767 0.13197382 0.032429483 -0.13143022 0.00080596196 0.14977333
0.21456121 0.088620394 0.0015349067 0.074404456 -0.10926476 -0.07958331 -0.14269991 -0.0109648965
-0.004136775 0.03190899 0.00071958284 -0.020560915 -0.08820919 0.052428596 0.011547706 -0.016239814
-0.027069276 -0.07874718 -0.068801925 -0.08629361 0.005191446 0.03898903 0.011486547 -0.117149755
0.029548436 0.023545664 0.011925456 0.0051030954 0.012502007 -0.022532584 -0.04448054 0.06276755
0.01084504 -0.02251454 0.031497203 0.07598521 0.0032903077 0.01909035 0.0137743065 0.063553736
0.020198172 -0.0031485416 0.009604454 0.0066782017 0.06895474 0.023203464 -0.051475253 0.0440698
0.008640324 0.016784232 0.014740224 -0.019523969 -0.069336385 -0.055300225 -0.017588092 -0.030570248
-0.10793399 -0.06870118 -0.0465266 0.045080286 -0.06417574 0.033352576 -0.11454991 -0.058971897
-0.07939943 -0.09316324 -0.015259817 -0.02661633 0.01429988 0.04655726 0.052899748 -0.023828063
0.06469076 0.00062880793 -0.09631741 -0.039334204

weight f4 [10, 84]
00000000: 837c af3d 00b0 eab7 1a0b 1ebd 90ed e0bb
00000010: 9fa8 983d 13da c0bd c82a 89bc b0f9 42bd
00000020: 8eea 653d 9dce 863d e578 9a3d 3c50 bcbc
00000030: 40c5 ff3b c63a 603d c3d3 a73d 406f 9e3a
00000040: 554e 6ebd 2f20 843d b0a8 81bb 657e d83d
00000050: 1835 02bd 8854 06bc 04be b63c 83da d23d
00000060: 8ac1 653d e9bb 93bd 949b 873c 4b88 b53d
00000070: 7490 893c c075 3d3b 0ccb e2bc dfa2 983d
00000080: 3be6 79bd 64a0 8dbc 900e 92bb 9a26 613d
00000090: f8a4 37bd e09a 0a3b d477 b0bd 1886 aebd
000000a0: fbc4 cd3d bb0f 90bd 34e6 98bc e918 ac3d
000000b0: 3408 6ebd d42e b43c 890b c1bd 3037 663c
000000c0: f0a1 a0bc f6dd 123d b4d8 0fbd f673 b8bd
000000d0: c54d 9ebd 18c2 74bc 41f3 c23d 109f 203c
000000e0: e5c5 da3d 6826 d3bd 40c5 09bd 2c66 c4bc
000000f0: f0e4 b3bd 0281 62bd a21c 643d 7fd1 833d
00000100: a8ac b1bc b514 de3d 7f89 803d 2b08 a63d
00000110: a0b8 dbbb d48b c23c 8574 c63d 82c8 453d
00000120: 3996 69bd 22e8 35bd f6bf 753d e278 72bd
00000130: 598c a8bd 36c3 463d d203 7f3d 3eb4 483d
00000140: 024e c6bd 3ff0 5ebd 6915 ac3d 040f 9c3c
00000150: ceca 9ebd f48b d53c fd66 933d 96e7 b0bd
00000160: e7eb c73d 72ee cfbd 7468 b53c 4f39 a03d
00000170: 3bbc ca3d cd93 cdbd c080 07bd b6d8 563d
00000180: ac6d c43c 2adf babd f9b3 b83d d767 803d
00000190: cde1 993d 22ac 603d 1ff3 b63d be6d 17bd
000001a0: c243 303d 7ac8 2f3d 2a6e 1c3d 8423 aa3c
000001b0: 3fd0 873d 8abd 3e3d 9856 25bd 82e9 293d
000001c0: f7ec 53bd b05a b3bb 707c 663c c09d 76bc
000001d0: 613b ba3d f1a4 a43d fd8a 8f3d c15f d13d
000001e0: e06d ff3b 4c00 38bd 8fd8 a6bd 73ec c43d
000001f0: bb03 dd3d 4c21 5dbd 556e a5bd 4631 183d
00000200: e207 533d 7efd 9bbd 2895 82bc ba47 093d
00000210: 3b6d b1bd 9ee6 8abd 5285 aebd 5713 a13d
00000220: ddf3 42bd f40d 7cbd 544f c4bc 38ce 2ebc
00000230: ab8b bbbd 44b4 ec3c d978 cd3d 8b49 ab3d
00000240: 32da abbd 7d22 a63d 739d 99bd 902b 9cbb
00000250: 8052 fe3a d8ff 173c 839d 92bd 432b d23d
00000260: e453 89bd 0071 bfbd 06fd 84bd 16b5 cdbd
00000270: b7f4 b53d 5f91 cc3d e0ca cabc a0a8 c5bd
00000280: 9e37 693d 1853 693c a04a 1bbd be5a 9fbd
00000290: caa4 0d3d 80fc 32bb 0c3b f43c 4d3e 44bd
000002a0: 0b01 dd3d 550d a13d 4e3b 5f3d 519b c43d
000002b0: a8ac d4bd fd60 b03d 04e8 b2bd ebc7 a33d
000002c0: 3848 7c3c e040 2cbd 1b7d ca3d ed13 883d
000002d0: 0267 5c3d a09f 1b3b da46 283d ce45 773d
000002e0: 3264 82bd 70bf 2e3c d93a d63d 70c3 9cbc
000002f0: 5c08 d4bd e1ed 89bd dcfa 61bd 8ceb b93c
00000300: f015 13bd 1f7c c63d a8f6 283c ca13 083d
00000310: 44c2 00bd 25f3 823d a084 ddbd ddbb babd
00000320: 50f1 c5bd d434 afbd 2f5d c2bd fc75 c53c
00000330: 05d2 c43d d77e c8bd 09bd d33d 9cee 90bc
00000340: 2fd0 93bd 6611 bfbd 09e3 cf3d 8427 b1bc
00000350: 6520 a23d 4c56 35bd 0d0d 8d3d b750 3fbd
00000360: 0fc9 813d 6c19 aebd d776 9b3d ed4f da3d
00000370: b9b7 c1bd 000c b9bc febf 653d 648b 92bd
00000380: 646b 943c 9be1 7ebd 6a01 733d 3cfc c5bd
00000390: cc52 99bc 4061 423c 9cab e1bc 52f2 d5bd
000003a0: a03f 3cbd 5efe 90bd 8b98 41bd 06fc 623d
000003b0: 608c a5bd d162 43bd 25af 8d3d dd3f 993d
000003c0: 1be8 91bd 5e8a 12bd 6bb1 a63d d6cc 503d
000003d0: b3c7 9f3d 54f6 a1bd 9981 873d fc68 c1bc
000003e0: 6935 be3d 4937 d43d 02b4 233d d2c2 1d3d
000003f0: e89c aebd ec65 8e3c c4b8 f53c 6a41 6c3d
0.085686706 -2.797693e-05 -0.038584806 -0.006864257 0.07454037 -0.09416594 -0.016744033 -0.0476014
0.056131892 0.06582377 0.0754259 -0.022987477 0.0078054965 0.05474355 0.08194687 0.0012087598
-0.058180172 0.06451451 -0.0039568767 0.10570983 -0.031788915 -0.008198865 0.022307403 0.10295584
0.056092776 -0.072135754 0.016553678 0.088638864 0.016792513 0.0028909296 -0.02768471 0.0745294
-0.06101058 -0.017288394 -0.0044573024 0.054968454 -0.04483506 0.0021149442 -0.086166054 -0.0852167
0.10047337 -0.0703425 -0.018664457 0.08403189 -0.05811329 0.021994986 -0.09426028 0.014051244
-0.019608468 0.03585621 -0.035118774 -0.09006493 -0.07729677 -0.014938854 0.09519053 0.009803548
0.10682277 -0.1031006 -0.033635378 -0.0239745 -0.08783901 -0.055298813 0.05569137 0.064364426
-0.021688774 0.10843793 0.06276225 0.08107027 -0.0067053586 0.023748316 0.09690193 0.048286922
-0.05702803 -0.044410832 0.05999752 -0.059197314 -0.08229894 0.04852601 0.062259503 0.049000017
-0.096828476 -0.054428335 0.08402521 0.019050129 -0.07753526 0.026067711 0.07197378 -0.086379215
0.09761792 -0.10152902 0.022144534 0.07823431 0.09899183 -0.100379564 -0.03308177 0.052452765
0.023978077 -0.091245964 0.09018702 0.06269806 0.07513771 0.05485166 0.089330904 -0.036969893
0.04303337 0.0429158 0.038190998 0.020768888 0.06631517 0.046567477 -0.040365785 0.041482456
-0.05173966 -0.0054734573 0.014067754 -0.015052259 0.09093357 0.080392726 0.07008932 0.10223342
0.0077950805 -0.044922158 -0.08146774 0.096154116 0.10791727 -0.053986832 -0.08077685 0.037156366
0.05152119 -0.07616709 -0.015940264 0.03351567 -0.08663412 -0.06782268 -0.085215226 0.07865017
-0.047595847 -0.061536744 -0.023963608 -0.010669284 -0.09157499 0.028894551 0.100328155 0.083636366
-0.08391227 0.08112047 -0.07500734 -0.0047659352 0.0019403249 0.0092773065 -0.07158949 0.10262158
-0.06705454 -0.09347725 -0.06493573 -0.10044305 0.08884566 0.09988665 -0.024754941 -0.09651303
0.056937806 0.0142410025 -0.037912965 -0.077809796 0.034580983 -0.0027311146 0.029813312 -0.047910977
0.107912146 0.07863871 0.054499917 0.09599937 -0.10384494 0.08612249 -0.0873566 0.07997116
0.015398078 -0.042054057 0.09887143 0.066444255 0.053809173 0.0023746267 0.041083194 0.060369305
-0.06366767 0.010665759 0.10460443 -0.01913616 -0.10353157 -0.06734825 -0.05517088 0.022695325
-0.035909593 0.09691643 0.010312714 0.033221997 -0.031435266 0.063940324 -0.10816312 -0.09117863
-0.09665167 -0.08554998 -0.094904296 0.02410411 0.096103705 -0.09789818 0.1033879 -0.017691903
-0.07217442 -0.0932949 0.101507254 -0.021625288 0.07916335 -0.044271752 0.06887255 -0.046707835
0.06337177 -0.085009426 0.07591026 0.10659776 -0.094588704 -0.02258873 0.0560913 -0.07155493
0.018117614 -0.062226873 0.05932752 -0.096672505 -0.018716238 0.0118640065 -0.02754765 -0.104466096
-0.045959115 -0.07079767 -0.047264617 0.05541613 -0.08083415 -0.04770166 0.06918172 0.07482884
-0.07124349 -0.03577649 0.081393085 0.050976597 0.078017615 -0.079083115 0.06616516 -0.02360963
0.09287531 0.10362107 0.03996659 0.038515873 -0.08526021 0.017382585 0.02999533 0.05767957

bias f4 [10]
00000000: 7836 083c c8c2 5abc 9c9a 8dbd 1167 c4bd
00000010: 7d38 a2bd 660c 393d bb0b b83d b7bb 913d
00000020: 3963 bf3d d0ac a9bc
0.008313768 -0.0133521035 -0.06914255 -0.09589971 -0.079209305 0.04517784 0.089866124 0.07115882
0.09345097 -0.020712286
